…
2021-06-19 23:29:03.399297: I tensorflow/core/common_runtime/gpu/gpu_device.cc:1200] 0:   N 
2021-06-19 23:29:03.399463: I tensorflow/core/common_runtime/gpu/gpu_device.cc:1326] Created TensorFlow device (/job:localhost/replica:0/task:0/device:GPU:0 with 4765 MB memory) -> physical GPU (device: 0, name: GeForce GTX 1660 Ti, pci bus id: 0000:01:00.0, compute capability: 7.5)
Model: "model_1"
_________________________________________________________________
Layer (type)                 Output Shape              Param #   
=================================================================
input_1 (InputLayer)         (None, 303)               0         
_________________________________________________________________
embedding3 (Embedding)       (None, 303, 300)          26729400  
_________________________________________________________________
dropout_1 (Dropout)          (None, 303, 300)          0         
_________________________________________________________________
onlstm_1 (ONLSTM)            (None, 303, 300)          723604    
_________________________________________________________________
global_max_pooling1d_1 (Glob (None, 300)               0         
_________________________________________________________________
documentOut_1 (Dense)        (None, 300)               90300     
_________________________________________________________________
dropout2 (Dropout)           (None, 300)               0         
_________________________________________________________________
normal1 (BatchNormalization) (None, 300)               1200      
_________________________________________________________________
output_1_y3 (Dense)          (None, 219)               65919     
=================================================================
Total params: 27,610,423
Trainable params: 880,423
Non-trainable params: 26,730,000
_________________________________________________________________
Train...
WARNING:tensorflow:From D:\anaconda3\envs\bert4keras\lib\site-packages\keras\backend\tensorflow_backend.py:422: The name tf.global_variables is deprecated. Please use tf.compat.v1.global_variables instead.
…
