Loading data...
Build model...
Model: "model_1"
_________________________________________________________________
Layer (type)                 Output Shape              Param #   
=================================================================
input_1 (InputLayer)         (None, 300)               0         
_________________________________________________________________
embedding_1 (Embedding)      (None, 300, 300)          26729400  
_________________________________________________________________
dropout_1 (Dropout)          (None, 300, 300)          0         
_________________________________________________________________
onlstm_1 (ONLSTM)            (None, 300, 300)          723604    
_________________________________________________________________
global_max_pooling1d_1 (Glob (None, 300)               0         
_________________________________________________________________
documentOut_1 (Dense)        (None, 300)               90300     
_________________________________________________________________
dropout2 (Dropout)           (None, 300)               0         
_________________________________________________________________
normal1 (BatchNormalization) (None, 300)               1200      
_________________________________________________________________
output_1 (Dense)             (None, 9)                 2709      
=================================================================
Total params: 27,547,213
Trainable params: 817,213
Non-trainable params: 26,730,000
_________________________________________________________________
Train...
Train on 246802 samples, validate on 27423 samples
Epoch 1/100

    64/246802 [..............................] - ETA: 1:03:53 - loss: 2.7696 - accuracy: 0.1406
…
