…
2021-06-20 09:54:38.670500: I tensorflow/core/common_runtime/gpu/gpu_device.cc:1200] 0:   N 
2021-06-20 09:54:38.670672: I tensorflow/core/common_runtime/gpu/gpu_device.cc:1326] Created TensorFlow device (/job:localhost/replica:0/task:0/device:GPU:0 with 4765 MB memory) -> physical GPU (device: 0, name: GeForce GTX 1660 Ti, pci bus id: 0000:01:00.0, compute capability: 7.5)
Model: "model_1"
_________________________________________________________________
Layer (type)                 Output Shape              Param #   
=================================================================
input_1 (InputLayer)         (None, 500)               0         
_________________________________________________________________
emb (Embedding)              (None, 500, 300)          26729400  
_________________________________________________________________
dropout1 (Dropout)           (None, 500, 300)          0         
_________________________________________________________________
onlstm_1 (ONLSTM)            (None, 500, 512)          1668276   
_________________________________________________________________
pool1 (GlobalMaxPooling1D)   (None, 512)               0         
_________________________________________________________________
documentOut_1 (Dense)        (None, 500)               256500    
_________________________________________________________________
Dropout2 (Dropout)           (None, 500)               0         
_________________________________________________________________
Normal1 (BatchNormalization) (None, 500)               2000      
_________________________________________________________________
output_1 (Dense)             (None, 7)                 3507      
=================================================================
Total params: 28,659,683
Trainable params: 1,929,283
Non-trainable params: 26,730,400
_________________________________________________________________
Train...
WARNING:tensorflow:From D:\anaconda3\envs\bert4keras\lib\site-packages\keras\backend\tensorflow_backend.py:422: The name tf.global_variables is deprecated. Please use tf.compat.v1.global_variables instead.
…
