…
###############################################################################################################
onlstm_1/kernel:0
onlstm_1/recurrent_kernel:0
onlstm_1/bias:0
documentOut_1_2/kernel:0
documentOut_1_2/bias:0
Normal1_2/gamma:0
Normal1_2/beta:0
output_1_y2/kernel:0
output_1_y2/bias:0


emb2/embeddings:0
Normal1_2/moving_mean:0
Normal1_2/moving_variance:0


Model: "model_1"
_________________________________________________________________
Layer (type)                 Output Shape              Param #   
=================================================================
input_1 (InputLayer)         (None, 502)               0         
_________________________________________________________________
emb2 (Embedding)             (None, 502, 300)          26729400  
_________________________________________________________________
dropout12 (Dropout)          (None, 502, 300)          0         
_________________________________________________________________
onlstm_1 (ONLSTM)            (None, 502, 512)          1668276   
_________________________________________________________________
pool1 (GlobalMaxPooling1D)   (None, 512)               0         
_________________________________________________________________
documentOut_1_2 (Dense)      (None, 500)               256500    
_________________________________________________________________
Dropout2_2 (Dropout)         (None, 500)               0         
_________________________________________________________________
Normal1_2 (BatchNormalizatio (None, 500)               2000      
_________________________________________________________________
output_1_y2 (Dense)          (None, 143)               71643     
=================================================================
Total params: 28,727,819
Trainable params: 1,997,419
Non-trainable params: 26,730,400
_________________________________________________________________
Train...
Train on 33829 samples, validate on 3759 samples
WARNING:tensorflow:From D:\anaconda3\envs\bert4keras\lib\site-packages\keras\backend\tensorflow_backend.py:422: The name tf.global_variables is deprecated. Please use tf.compat.v1.global_variables instead.
…
